…
  "gru_hidden_size": 64,
  "gru_num_layers_teacher": 2,
  "seq_length_teacher": 8,
  "gru_num_layers_student": 1,
  "seq_length_student": 5,
  "dataset_pct": 1.0,
  "num_workers": 8,
  "use_gpu": true,
  "save_dir": "saved_folder_train",
  "debug": false,
  "resume": false,
  "start_epoch": 0,
  "T_0": 10,
  "T_mult": 2,
  "eta_min": 1e-06
}-------------------------------------------------------------------------------
            Layer (type)           Input Shape         Param #     Tr. Param #
===============================================================================
                Conv2d-1      [4, 1, 224, 224]             162             162
           BatchNorm2d-2     [4, 18, 112, 112]              36              36
                  ReLU-3     [4, 18, 112, 112]               0               0
             MaxPool2d-4     [4, 18, 112, 112]               0               0
                Conv2d-5       [4, 18, 56, 56]             162             162
           BatchNorm2d-6       [4, 18, 56, 56]              36              36
                  ReLU-7       [4, 18, 56, 56]               0               0
                Conv2d-8       [4, 18, 56, 56]             648             648
           BatchNorm2d-9       [4, 36, 56, 56]              72              72
                 ReLU-10       [4, 36, 56, 56]               0               0
            MaxPool2d-11       [4, 36, 56, 56]               0               0
               Conv2d-12       [4, 36, 28, 28]             324             324
          BatchNorm2d-13       [4, 36, 28, 28]              72              72
                 ReLU-14       [4, 36, 28, 28]               0               0
               Conv2d-15       [4, 36, 28, 28]           2,592           2,592
          BatchNorm2d-16       [4, 72, 28, 28]             144             144
                 ReLU-17       [4, 72, 28, 28]               0               0
            MaxPool2d-18       [4, 72, 28, 28]               0               0
               Conv2d-19       [4, 72, 14, 14]             648             648
          BatchNorm2d-20       [4, 72, 14, 14]             144             144
                 ReLU-21       [4, 72, 14, 14]               0               0
               Conv2d-22       [4, 72, 14, 14]          10,368          10,368
          BatchNorm2d-23      [4, 144, 14, 14]             288             288
                 ReLU-24      [4, 144, 14, 14]               0               0
            MaxPool2d-25      [4, 144, 14, 14]               0               0
    AdaptiveAvgPool2d-26        [4, 144, 7, 7]               0               0
               Conv2d-27        [4, 144, 1, 1]          10,440          10,440
                 ReLU-28         [4, 72, 1, 1]               0               0
               Conv2d-29         [4, 72, 1, 1]          10,512          10,512
              Sigmoid-30        [4, 144, 1, 1]               0               0
               Conv2d-31        [4, 144, 7, 7]           7,057           7,057
              Sigmoid-32          [4, 1, 7, 7]               0               0
    AdaptiveMaxPool2d-33        [4, 144, 7, 7]               0               0
               Linear-34              [4, 144]           9,280           9,280
                 ReLU-35               [4, 64]               0               0
               Linear-36               [4, 64]           4,160           4,160
            LayerNorm-37            [1, 4, 64]             128             128
                  GRU-38            [1, 4, 64]          24,960          24,960
   MultiheadAttention-39                                16,640          16,640
               Linear-40            [1, 4, 64]           4,160           4,160
                 ReLU-41            [1, 4, 64]               0               0
              Dropout-42            [1, 4, 64]               0               0
               Linear-43            [1, 4, 64]           4,160           4,160
===============================================================================
Total params: 107,193
Trainable params: 107,193
Non-trainable params: 0
-------------------------------------------------------------------------------


============================================= Hierarchical Summary =============================================

StudentModalityNet(
  (image_cnn_layers): Sequential(
…
