…
  "num_pred": 6,
  "downsample_ratio": 1,
  "dataset_pct": 1.0,
  "train_csv_name": "train_seqs_6.csv",
  "test_csv_name": "test_seqs_6.csv",
  "num_workers": 8,
  "use_gpu": true,
  "save_dir": "saved_folder_train",
  "debug": false,
  "resume": false,
  "start_epoch": 0,
  "T_0": 10,
  "T_mult": 2,
  "eta_min": 1e-06
}------------------------------------------------------------------------------------
              Layer (type)              Input Shape         Param #     Tr. Param #
====================================================================================
   ImageFeatureExtractor-1     [32, 7, 1, 224, 224]       1,709,112       1,709,112
               LayerNorm-2              [32, 7, 64]             128             128
                     GRU-3              [32, 7, 64]          49,920          49,920
      MultiheadAttention-4                                   16,640          16,640
                  Linear-5              [32, 7, 64]           4,160           4,160
                    ReLU-6              [32, 7, 64]               0               0
                 Dropout-7              [32, 7, 64]               0               0
                  Linear-8              [32, 7, 64]           4,160           4,160
                    ReLU-9              [32, 7, 64]               0               0
                Dropout-10              [32, 7, 64]               0               0
                 Linear-11              [32, 7, 64]           4,160           4,160
====================================================================================
Total params: 1,788,280
Trainable params: 1,788,280
Non-trainable params: 0
------------------------------------------------------------------------------------


=========================================== Hierarchical Summary ===========================================

ImageModalityNet_MHA(
  (feature_extraction): ImageFeatureExtractor(
…
